results/mnist_regularize/trained_models/standard/standard-lr_0.01-wd_0.0005-seed_17-normalize_ln.pth (torch, 163409 bytes, 26 tensors)

conv_1.weight f4 [32, 1, 5, 5]
00000000: a3d4 123d 0580 263c 84d9 e9bc 334e 0e38
00000010: a81b 913c 269d 543c 4a30 ac3a f0da 59bc
00000020: 4791 343c 34ed af3c 377e 11bb d38e 36bc
00000030: 4ced 783a 786f 90b9 e261 8a3c f448 c83c
00000040: f58a d73b a21d fbbb d068 57bc 564d 23bc
00000050: 025e 0d3d 2212 263c 9421 a2bc 773b 8fbb
00000060: 1258 9f3c 415d 3739 3428 ce3a f72e 85ba
00000070: 6dd5 1c3a a40f 86ba 1de3 06b9 f000 783a
00000080: 3f05 b3ba 1266 11b8 3988 7bba 0c67 43b9
00000090: dd79 7d3a 7e71 ffba 4933 7439 04ee caba
000000a0: 12d6 f1b9 285c a739 862d b4ba a628 4539
000000b0: 8243 c0b9 5c09 5eba 8c6b 643a 3280 70ba
000000c0: 8fd3 d73a 110a a139 d043 4f3a 7030 953a
000000d0: cc28 6dba ed00 ebba 82bc a5bb 9bec 06ba
000000e0: d292 d539 f335 ceba 5bf2 8ebb 1c22 febb
000000f0: 0489 f4ba 12ec 04b9 b754 0bbb 5cad 4cbb
00000100: 15ca e2bb 7fe2 88b9 b0c9 2d39 9594 bfba
00000110: b175 00bb d701 7abb a2cd 903a 692c fa3a
00000120: 91c6 eb39 990b d43a c737 2fbb 74c3 35be
00000130: 28f8 423e 7869 da3e 7980 173d c973 efbe
00000140: 8b6f 91be 94d6 2f3e cbd3 e83e f51d 143e
00000150: f258 f6be 6cfd 9fbe d020 0e3e 1d72 da3e
00000160: 0655 3a3d c389 11bf 9d4e f1be c99d 653e
00000170: 6310 d53e f254 c73d e1d0 e8be 2dcd c5be
00000180: 3ae7 823e 2520 073f 83a1 1a3e 6839 d0be
00000190: 5ef6 cc3d 9a82 02be f619 1ebf c960 61bf
000001a0: 186a 5ebe 182e 803e 6113 ac3e 847f 0b3e
000001b0: 1875 48bf 3be5 f4be 33c5 1a3e 77c8 bd3e
000001c0: 96db 9b3e f55a 0dbf a2ba 2cbf 83d7 4b3e
000001d0: 8a74 c03e 9436 fd3d 4a6f c6be 246f 23bf
000001e0: 292f d03e c3b6 033f 1e07 c03b f003 f0be
000001f0: cd74 1bbf 7747 693b f80e b63b 3b04 753c
00000200: 405d 013d 43bf eb3c 6cac 91bc 6f41 143c
00000210: 2665 e63c 3835 913c bc92 d73c ebaf 69bc
00000220: 14c9 083d 7b93 fd3c 7401 a63c c64d b03c
00000230: 4ff8 a43c a54e 203d b001 993c eaf0 e63b
00000240: 5715 b9bb 99db efb9 3da9 99ba e9c7 fdbc
00000250: f2e9 dabc 6d05 e3bc 5dd4 393e 0603 a23e
00000260: 0912 bd3e 7981 c7bd ce61 eabe 6323 c13e
00000270: be01 9b3e e4b0 a53b 3b2e afbe 2543 a1be
00000280: 9eb0 913e f06a 043e e4d9 23be 0050 0abf
00000290: 1e4f c5be 1216 c53e ae02 ecbc 9d7c afbe
000002a0: e61a 88be f180 60be 7e47 7dbd 74e6 11bf
000002b0: 14c7 c5be 7dee 66be beff a2be a279 aa3e
000002c0: 104d cf3d 67b8 fcbe eb9e 78be 4a7a 833e
000002d0: 68bd 2d3e 74db eabe f7cf 08bf 3e48 643e
000002e0: 9ae0 ce3e a2c6 e2bc c128 f3be 0086 993d
000002f0: 3787 2d3f c0e3 bbbd c7f5 5dbe c799 05bd
00000300: 0b49 d63e 7381 b63e 0fd4 dbbe 3205 e3bd
00000310: 2cea 163e 47bc 5a3e 0b15 2b3b 9ee2 dabe
00000320: 97c3 1bbd f803 f5bc 3e41 f93d 93c0 263d
00000330: 490b bfbd 488f 173d 8fa8 883e 7c21 ac3e
00000340: 110b 803e 4ab4 2b3e 7fc9 263c ce0a 103e
00000350: bc0b 893e cf58 503e e8e5 173e f8e8 7b3d
00000360: e1fe a83c 902e 4d3c d516 7bbd 8510 ccbc
00000370: 4e67 31be f550 bebe f481 9cbe 3252 1bbe
00000380: dbc2 20bd 9e3e 043d ab66 9e3c fed3 fbbc
00000390: 2e98 56bc c6ff 51bb 6f26 1d3d f822 4bba
000003a0: 5c00 d0bc c16f c63c 5e97 023d b79d 2c3c
000003b0: 8849 efbc 9df4 d7bc 9051 1f3d 1e45 4c3d
000003c0: 3027 32bd e580 d6bb c830 303c 0222 d33c
000003d0: a3d4 f93c 00f1 04bd ae68 633c 86f2 803c
000003e0: 9ba8 35bc 2663 6f3c 3df3 63ba 2017 943c
000003f0: fe86 1d3c e2e0 5dba c4c8 1f3a 8176 3d3a
0.035847317 0.010162358 -0.028546102 3.3928267e-05 0.017713383 0.01297692 0.001313695 -0.013296828
0.011020965 0.021475412 -0.0022200474 -0.01114245 0.0009495809 -0.0002754887 0.016892377 0.02444885
0.0065778443 -0.0076634446 -0.013147548 -0.009967169 0.03451348 0.010136159 -0.019791402 -0.0043711024
0.019451175 0.0001748698 0.0015728534 -0.0010161091 0.00059827307 -0.001022805 -0.00012863842 0.0009460589
-0.001365818 -3.4665754e-05 -0.0009595189 -0.00018635037 0.0009669343 -0.0019488779 0.00023288759 -0.0015482311
-0.00046126597 0.00031921384 -0.0013746477 0.00018802527 -0.0003667139 -0.00084700226 0.00087135355 -0.0009174376
0.0016466248 0.00030715813 0.0007906528 0.0011382233 -0.0009046912 -0.0017929353 -0.0050578723 -0.00051469513
0.00040735916 -0.0015732631 -0.004362387 -0.007755531 -0.0018656556 -0.00012676444 -0.002126021 -0.003123126
-0.0069210627 -0.00026108694 0.000165737 -0.0014616424 -0.00196014 -0.003814807 0.0011047611 0.0019086722
0.00044970636 0.0016177773 -0.0026736127 -0.1775034 0.19039977 0.4265859 0.036987755 -0.46768025
-0.28405413 0.17171699 0.45474085 0.14464553 -0.48114735 -0.31248033 0.13879704 0.42665187
0.04549124 -0.5685083 -0.4713029 0.22423472 0.41614065 0.09732999 -0.45471862 -0.386331
0.25567037 0.52783424 0.15100674 -0.40668797 0.10007928 -0.12745133 -0.61758363 -0.8803831
-0.21720159 0.25035167 0.33608535 0.13622862 -0.7830367 -0.4783114 0.15114288 0.37067005
0.30440968 -0.55216914 -0.6747228 0.1990643 0.37588912 0.123639256 -0.38756782 -0.6384146
0.4066098 0.5145075 0.0058602234 -0.46878004 -0.607251 0.0035595575 0.0055559836 0.014954622
0.03158307 0.028777724 -0.017782412 0.009048804 0.028124403 0.017725572 0.026315086 -0.0142631335
0.033394888 0.030954113 0.020264365 0.02152146 0.020137934 0.0391375 0.018677562 0.007047762
-0.005648296 -0.00045749245 -0.001172341 -0.030979114 -0.026722882 -0.027712548 0.18147416 0.31642932
0.36927822 -0.09741492 -0.45777744 0.3772231 0.30274767 0.0050564874 -0.3421496 -0.3149654
0.2845506 0.12931418 -0.16001087 -0.5402832 -0.38536924 0.384934 -0.028809872 -0.3427476
-0.26583022 -0.21924187 -0.06183576 -0.5699227 -0.38628447 -0.22551914 -0.3183574 0.33295923
0.101221204 -0.49359438 -0.24279372 0.25679237 0.16966784 -0.45870554 -0.5344233 0.22293183
0.40405732 -0.027682606 -0.4749203 0.074962616 0.67784446 -0.09174299 -0.21675788 -0.032617357
0.41852602 0.35645637 -0.42935225 -0.11084975 0.14737767 0.21360885 0.0026105072 -0.4275102
-0.038028326 -0.029909119 0.12170647 0.040710997 -0.09328324 0.037001878 0.266911 0.33619297
0.25008443 0.16767994 0.010179876 0.14066622 0.26766765 0.20346378 0.14833796 0.061501473
0.020629348 0.012523308 -0.06130107 -0.02491022 -0.17324564 -0.3717114 -0.30567896 -0.15168074
-0.03924833 0.03228628 0.019336065 -0.030740734 -0.013097806 -0.0032043322 0.03836673 -0.0007749046
-0.025390796 0.02422321 0.031882636 0.010535649 -0.029209867 -0.026361758 0.038896143 0.049870603
-0.043494403 -0.006546127 0.010753818 0.025773052 0.0304969 -0.032456398 0.013879938 0.015740644
-0.011087562 0.014611041 -0.0008695608 0.018077433 0.009614704 -0.0008463991 0.0006095285 0.0007227436

conv_1.bias f4 [32]
00000000: 717b a23d 842d c33d 3cf9 b13d d27e 27be
00000010: 65e2 583b 167f b33d a6ce 87bd bf7c 61be
00000020: 0eb5 06be 0e41 763d fa8f b13d a10d bf3d
00000030: 1fa8 43be 28ba 9e3d 9025 bcbd c23f b53d
00000040: 665a c03d 0c71 c73d 916c ce3d fb72 bf39
00000050: 1c96 8f3d 1d92 a63d 5b51 c13d 0de8 b7be
00000060: cfc0 b03d ad6a ab3d 386a 5d3d ca2d a33d
00000070: 6667 be3d 3c2e 823d 15e0 c13d f4ae 223e
0.07933701 0.09530166 0.08690116 -0.16356972 0.0033093926 0.08764474 -0.06631212 -0.22020243
-0.13155004 0.060120635 0.086700395 0.093287714 -0.19107102 0.0775035 -0.09186852 0.088500515
0.09392242 0.09738359 0.10079301 0.00036516026 0.07011053 0.08133338 0.094393454 -0.35919228
0.08630525 0.08369956 0.054056376 0.07967718 0.092970654 0.06356475 0.094665684 0.15887052

conv_2.weight f4 [20, 32, 5, 5]
00000000: 3be0 89bb 3fa3 1bbb 32b7 18bc cf5e 58ba
00000010: d2ce 6039 3d75 01bb 1298 fa39 b4f6 b3bc
00000020: 1c89 1cbb 9ce2 a3b8 1b59 27bb e1ed 6f3a
00000030: 319f 4fbb de9b fcb9 dc3c 4f39 7443 26ba
00000040: 68c9 c3bb 8202 abbb 6892 dbb9 cde9 42b9
00000050: 6936 c0ba d6cf 86b9 c5df 553c b337 1fba
00000060: 89f6 653a d2d7 1ebb 2408 5e37 259d c4bb
00000070: ce02 be3a fe9a 9939 0630 84ba 4b44 9bba
00000080: 6cc3 27ba f602 1cb9 7f65 1a38 1f5c 9cba
00000090: 672a 69bb 53d8 8fba d7d0 1e3c 8eed b6ba
000000a0: 360c 5a3b c663 443b d79f 9539 7ded 7bba
000000b0: 49e3 c7ba 9bec e8b9 cc73 1dbb e0a2 93ba
000000c0: 1215 9239 b217 a4b8 586e 21bb 1083 13bc
000000d0: c566 d3ba 7ebf e2ba 8bd8 7dba 21fc 85bb
000000e0: 59fc e0ba eef2 b6bb 8d66 373a 9e05 81ba
000000f0: 6f69 48bb 697e a0bb cb3f eab9 4d66 5aba
00000100: 82e1 01ba 1ec0 83bb 9e4e eaba 588f b2ba
00000110: 7df8 8cba 546d 9ebc 5fad babb f922 32bb
00000120: 256f 27bb e38c 4fba 8614 423b 11b0 8dbd
00000130: fb4e f2bc 22f1 503d 37ab c13d 7675 aabc
00000140: 8b7c ecbc 58d4 64bb 4659 f9bc e423 f3bd
00000150: c4f6 cd3d 27c3 213d ae42 7bbd 31bd c63b
00000160: 84a8 d6bb 3aef 053e 6a92 27bd ceda fdbd
00000170: 1d43 293d a992 90bd 7767 29bd 81a8 a8bd
00000180: de65 f9bb 6725 83bd f3c2 8f3c 6dce f73d
00000190: ea2d 1ebd 6e8c 223d ad1a 6b3c ae85 47be
000001a0: 00d5 38be 96d5 c3bd c0e5 993c 1a06 083e
000001b0: f443 1dbd bdfc 28bd 451f 83bd b0ce bb3c
000001c0: e3ea c03d 42d5 cabd 9aed 643d 1fc0 81bd
000001d0: 4530 413e ae64 d13d 62b3 10bb 1ed0 2b3d
000001e0: 36cc 523a 8ae1 6d3d 4238 26bd f5b1 b73c
000001f0: a5e1 d83a a989 84bc 7020 22bc a619 edbc
00000200: 9d9a 173c a02c 853c e63c b7ba 596e 04bc
00000210: d0e3 68b9 8c6f 12bb 96bf e1bb 3130 603b
00000220: 5e77 f6bc 9086 85bb 8254 d3ba 6f13 2bbc
00000230: beea 0d3d f2fa abbb 5258 11b9 2c18 29bb
00000240: 0d0f 3cbc 2aea 83bb 1cdd 1ebc ed78 38bc
00000250: f645 f6bb 139e 2e3d e08e f5bc a0d9 36bc
00000260: 44bd 843c 4f94 433d b01c b9bd 2170 7dbc
00000270: 7153 4e3d 0fca f83b cb01 10bb b6af 2f3d
00000280: 8c1e 803d 0456 11bd 25fc e7bd ccb4 adbc
00000290: c005 01bd adbe 4b3d 315a a2bc 92cf d23b
000002a0: d282 febd f91f ba3d 681c f63c bd39 9e3c
000002b0: a2a6 1ebd cc66 11bd b3d5 88bc 3f17 a53d
000002c0: 682f b93c 43e4 a3bd 774b 0e3c 13a0 973d
000002d0: 04c3 f03d ec36 2dbc cfb0 09bd 2bb6 2fb9
000002e0: b0fb 843d 2c6a 9cbc 553c 28bd 88f7 07be
000002f0: 089d 9b3d 4192 c2bc 9f82 653d 46b6 53be
00000300: 6d87 5bbc e86a c9bd 2e3b f6bb 0913 91bd
00000310: 5aa1 bfbb b62e 45bd 21d6 9bbc 25a8 5d3c
00000320: 329a 5ebd be14 d5bd 4290 0c3c 3f99 2d3d
00000330: 8e30 66bd 40d1 d6bc 7e5d a5bc 8b18 abbc
00000340: 073e a73c d677 773c 99ee ee3a 4b28 45bb
00000350: 39e9 8fbd d171 32bd 34df f4bc 3f1e 1ebc
00000360: 9bc4 2f3d 5efc c4bd b961 563c 698d d2bb
00000370: 3a8e 653d 31d7 8abd 6b4b 123c adcb ea3a
00000380: fecb ac3c f30b 2dbb d561 123b d916 b9ba
00000390: e3cf 293d 23f1 833a d77d 353a 2cc9 9539
000003a0: 86f5 ef3a fd55 453b 698d c83b a38b f9bc
000003b0: 1d91 a53a c02d bb3a dfb1 c33b 63c6 e739
000003c0: 7b6b a23b 4e57 dcb9 d434 a03a c869 2f3c
000003d0: c985 31bb a595 94bb 516d 743a 6e63 9a39
000003e0: 7024 653b 9bdf cf3b ecd9 a3b9 4a18 033a
000003f0: e146 cf39 548e 12bb 6e20 1bb9 b088 ca38
-0.0042076386 -0.0023748425 -0.009321021 -0.00082538737 0.00021439351 -0.0019753717 0.00047797017 -0.021968223
-0.0023885434 -7.814655e-05 -0.0025535289 0.0009152573 -0.0031680579 -0.00048181316 0.0001976373 -0.0006342449
-0.005974937 -0.005218805 -0.00041880016 -0.0001858838 -0.0014664653 -0.00025713322 0.013053839 -0.00060736685
0.00087723933 -0.0024237526 1.32341265e-05 -0.0060001784 0.0014496685 0.00029297912 -0.0010085113 -0.0011845914
-0.00063996646 -0.00014878422 3.6810987e-05 -0.001192931 -0.0035578252 -0.0010974504 0.009693346 -0.0013956295
0.0033271438 0.0029966696 0.00028538585 -0.00096102786 -0.0015250231 -0.00044426773 -0.002402532 -0.001126375
0.0002786299 -7.824543e-05 -0.002463242 -0.009003416 -0.001612865 -0.0017299501 -0.00096834515 -0.004088894
-0.0017165049 -0.0055831587 0.0006996177 -0.0009843593 -0.0030580421 -0.0048978818 -0.00044679487 -0.0008331284
-0.0004954563 -0.004020705 -0.0017876213 -0.0013623042 -0.0010755208 -0.019339241 -0.005696937 -0.002718149
-0.0025548425 -0.0007917417 0.0029614284 -0.069183476 -0.029578676 0.051011212 0.09456485 -0.020807963
-0.02886798 -0.0034916606 -0.030438077 -0.1187208 0.100568324 0.039492752 -0.061342888 0.006065034
-0.0065508503 0.13079539 -0.040911116 -0.12395249 0.04132377 -0.07059223 -0.041358437 -0.082352646
-0.0076110205 -0.06403618 0.017549014 0.120999195 -0.038618006 0.039684705 0.014349622 -0.19484589
-0.18050003 -0.09562223 0.018786311 0.13283578 -0.038394883 -0.041256655 -0.064024486 0.022925705
0.09419801 -0.09903957 0.055890657 -0.06335472 0.1886607 0.10224281 -0.0022079577 0.041946523
0.0008041294 0.05807642 -0.040580995 0.022423724 0.001654674 -0.016178923 -0.009895429 -0.028942894
0.009253171 0.01625663 -0.0013979941 -0.00808295 -0.00022210111 -0.002234432 -0.006889294 0.0034208412
-0.030086216 -0.004074879 -0.0016123208 -0.010441645 0.034647696 -0.005248421 -0.0001386118 -0.002580176
-0.011478198 -0.0040257173 -0.009696271 -0.0112593 -0.007515664 0.04263122 -0.029975355 -0.011160284
0.01620353 0.04774886 -0.09038675 -0.015468628 0.050372545 0.0075924466 -0.0021973725 0.04289218
0.06255826 -0.03548242 -0.1132739 -0.021204375 -0.031499624 0.04974239 -0.019818397 0.0064334357
-0.12427296 0.090881296 0.030042842 0.019314641 -0.038733132 -0.035498425 -0.016703462 0.080610745
0.022605613 -0.08002522 0.008684984 0.074035786 0.11755946 -0.010572176 -0.033615883 -0.00016757163
0.06493318 -0.019093595 -0.041073162 -0.1327802 0.07598311 -0.02375138 0.056032773 -0.20675
-0.013398987 -0.09834844 -0.007514379 -0.07083709 -0.005848092 -0.04814025 -0.019023003 0.013528858
-0.05434627 -0.10404347 0.008579316 0.042382475 -0.05619865 -0.026222825 -0.020186182 -0.020885726
0.02041532 0.015104255 0.0018229067 -0.003008383 -0.070269056 -0.043565575 -0.029891588 -0.009650766
0.042912107 -0.09618448 0.013084822 -0.006425549 0.05604384 -0.06779326 0.008929114 0.0017913483
0.021093365 -0.0026404827 0.0022336144 -0.0014121189 0.04145802 0.0010066371 0.00069233536 0.0002856938
0.0018307425 0.0030111067 0.006120373 -0.030462092 0.0012631748 0.0014280602 0.0059721316 0.00044207563
0.0049566603 -0.00042026717 0.0012222775 0.010706373 -0.0027087799 -0.0045344406 0.0009324151 0.0002944725
0.0034964345 0.0063437945 -0.00031252147 0.0005000873 0.00039534926 -0.0022362666 -0.00014794033 9.6575706e-05

conv_2.bias f4 [20]
00000000: 9f98 53be ba6d 4b3c c46c 203c 3aa8 0ebe
00000010: 8e60 d4bd 4038 e3be 0f05 903c 6b26 b73d
00000020: 14ac 1c3c 97be 9a3d a94b 4a3d 6287 233e
00000030: 5e0c 393e cf69 26be 7e66 303b 70dd 603c
00000040: 696f c93e 617a 6a3c a4dc f43b d169 e2bd
-0.20663689 0.012416298 0.009791557 -0.13931361 -0.10369979 -0.44378853 0.017580537 0.089428745
0.009562511 0.075558834 0.04938856 0.15969613 0.18071124 -0.162513 0.002691656 0.01372467
0.39342812 0.014311404 0.0074725915 -0.11055339

fc_1.weight f4 [10, 500]
00000000: 061b 553b f0f7 b7bc 7a38 d3ba 44cf 96bc
00000010: abc7 9d3d fec2 1bbd cb8f b0bd 6037 9dba
00000020: f10a 193e 9637 0abd b2b8 883d 8c92 18bb
00000030: d773 8db9 b08a 8ab9 f341 95b9 6f47 8a3d
00000040: 01c0 0abe 92e7 b83a 24de 783a 5b6c 56b8
00000050: 0d65 883c f585 6038 c673 8f3a 0741 283c
00000060: de68 753a e96c 8bb5 c579 1e38 f07d 86b9
00000070: 5610 ac39 ae1c 76b9 20fb bf39 9951 9fb9
00000080: d33b 34b8 1c46 633a 18dc 1a3b 21b0 433b
00000090: 6846 85b9 1543 25bc 3b8d 9eb8 a4df c83b
000000a0: d29a 3c3a 8985 0ebb 5836 453a 4e95 9f3b
000000b0: a408 e3b9 7338 013a 9a20 b639 c229 c03a
000000c0: 3766 09ba 9f71 c039 b855 1833 3d7a 09af
000000d0: ecb9 472e 360a 6134 a0d2 2db7 169b b832
000000e0: 9369 69bc 7c04 8d33 5016 442f f576 2131
000000f0: 6a56 1239 be92 63b7 4f1b 2038 dc69 49b7
00000100: 5f18 5f3a 5645 27b8 1f00 a1bc d48c aeba
00000110: 35fe c139 0cbd a4ba 11ba 533a 8134 9533
00000120: 00b9 f2b9 6762 abb8 fd41 db2c 2280 c5b8
00000130: 3d8b e538 46cd 4db6 9524 c2bd 4f3b c9bb
00000140: 3fb4 69bc d5bd 09be ba9d d4bd c818 da3d
00000150: 9581 6c3e e975 433d e005 35bc f070 d2bd
00000160: cf1b 173e aa40 c23d 3231 923e a93e 5fbe
00000170: c317 b3be 8c3d 33bd 0b02 813d 3ad9 ab38
00000180: 46c5 d93d a8c1 fdbe 81af 92be 0db6 4b3d
00000190: 4795 acbd afea 67bd 7efd 91bd 070b 02bd
000001a0: 0651 e93b 904a c3be d9a3 57be 31c1 0cbf
000001b0: 9233 cabd 5525 cf3e 5eb1 58bd d7a0 943b
000001c0: ab9b 20be 283e 0a3c e672 bb3c 2377 17be
000001d0: 0f8e 693e 1215 2bbe 855b 223e 85cb 95bd
000001e0: 2374 1fbc 792b f93c c524 633d fc16 833e
000001f0: d83b 913d a83d 073a 5bcd 023c fd4b ac3d
00000200: 6fce 73bd 99dc 92ba 6513 3f3a 9d57 ad3c
00000210: 5622 f6bd 78b6 8bbc 2284 4abe f570 2939
00000220: ff03 c039 5584 c1bc 05b8 173e 7f79 8b3e
00000230: 0615 833a b1e8 543d 0ec5 1c3c f0fe a63e
00000240: 4ac6 193b fc87 87bb 659b 14be 6945 adba
00000250: 3405 a03b feb7 89b7 59a8 b0a7 3448 80b8
00000260: 2f70 99ba 1147 a63a 2119 bfac 5625 79ba
00000270: eec7 0a38 c388 5bb9 5f8c 06ba 5f9d 6931
00000280: b209 2dbb ff4b 31bb ce9e 61bc 2639 54b7
00000290: 5157 e0a0 f1a5 1e3a b9ee 0bb9 fbf1 0e3a
000002a0: 6ecf 88b2 38ee deaa 9619 792b 7443 09ab
000002b0: 1998 6e30 5f51 f732 8ce5 8435 289d 1c3c
000002c0: 42f0 063c bcaa b13d bab5 2bbd 4181 fd3b
000002d0: 6714 50ba dcd4 943e c7e9 e83d 875e 59be
000002e0: eba1 e83b f8ed 0a3c 9a5f 183d 9204 83be
000002f0: 8e11 4c3e d511 7b3d dd3f 5d3c d02c a2be
00000300: 3869 1fbe d75a 723e db78 f0bb 7719 fc3c
00000310: c4f5 ad3c cdb9 8535 c02a a238 fb4c 02bb
00000320: 70de 1439 534b fd3b 0c25 1a3c 8e83 6b3b
00000330: de12 00bb 98ae 2f3b f965 7cba d3d6 32b9
00000340: 2e2c a03c 26d4 4439 0ac2 8138 a377 30b9
00000350: c61b 55bc 845b 923b dcbc e4bb fc69 8336
00000360: 00a6 81bb a3db 3abb b837 703b 2291 2c3a
00000370: d1be 65bc 4de5 22bb 502f 003c eacc 0dbd
00000380: 7441 b2ba f798 f3ba d850 85ba e352 e137
00000390: 6505 cc38 5043 82bb 67c4 ec3b 7208 13ba
000003a0: 18a2 bbbd e428 44bd 07a4 a63a c0ce 04bb
000003b0: cc60 b9bd 161e 64bb 15cf 04be 51ca 9eba
000003c0: 0389 4dbb e656 9f3d 3c7f 2c3e f812 74be
000003d0: 7433 653a e02f 04bb dec5 c73d 51ec dfb8
000003e0: c2df 66ba dfbb 3b3c eadd 76bb d31d 4a3d
000003f0: 9fa8 9eb9 8bd3 54bc 699f c93c c28e 92bd
0.0032517328 -0.022457093 -0.0016114854 -0.018409379 0.07704099 -0.038027756 -0.08621176 -0.0011994652
0.1494558 -0.033744417 0.06675853 -0.0023280708 -0.00026979923 -0.0002642474 -0.0002846863 0.06751906
-0.13549806 0.0014107099 0.0009493551 -5.112249e-05 0.016649747 5.353052e-05 0.0010944537 0.01026941
0.0009361635 -1.0388004e-06 3.7783542e-05 -0.00025652302 0.00032818568 -0.00023471072 0.00036617462 -0.00030387638
-4.297106e-05 0.000866981 0.0023629721 0.002985962 -0.00025420194 -0.010086794 -7.560333e-05 0.0061301757
0.0007194701 -0.0021747074 0.00075230515 0.0048700934 -0.00043303252 0.0004929371 0.00034738035 0.0014660882
-0.00052413665 0.00036705748 3.546822e-08 -1.2503505e-10 4.5412493e-11 2.0958473e-07 -1.03606435e-05 2.1490944e-08
-0.014246362 6.56664e-08 1.7834023e-10 2.3496203e-09 0.00013955837 -1.356442e-05 3.8172406e-05 -1.2005181e-05
0.00085104065 -3.9880477e-05 -0.019653378 -0.0013317117 0.00037001228 -0.0012568547 0.0008076737 6.9479036e-08
-0.00046295673 -8.172244e-05 6.2316805e-12 -9.4175586e-05 0.00010945506 -3.0666865e-06 -0.09479634 -0.0061411033
-0.014264165 -0.13451321 -0.103816465 0.10649258 0.23096307 0.04771987 -0.011048764 -0.10275447
0.14756702 0.0948499 0.28553158 -0.21801247 -0.34979066 -0.043759868 0.06299218 8.194377e-05
0.1063333 -0.4956181 -0.28649524 0.049734164 -0.0842691 -0.056620296 -0.07128428 -0.031748798
0.0071202544 -0.38142824 -0.21058597 -0.54982287 -0.098731175 0.4045817 -0.052903526 0.004535775
-0.15684383 0.008437671 0.022881936 -0.14791541 0.22808097 -0.16707256 0.15855224 -0.07314209
-0.009732279 0.030416237 0.055454988 0.25603473 0.070914924 0.0005159029 0.007983531 0.08412931
-0.059523042 -0.0011204659 0.0007288962 0.021159941 -0.12018268 -0.017054781 -0.19776967 0.00016159176
0.0003662407 -0.023622671 0.14816292 0.27241132 0.0010000772 0.051979724 0.009568466 0.32616377
0.0023464137 -0.0041360836 -0.14512403 -0.0013219538 0.0048834328 -1.641735e-05 -4.9032336e-15 -6.1169645e-05
-0.0011706407 0.0012685974 -5.4313364e-12 -0.00095041597 3.3087963e-05 -0.00020936415 -0.0005132611 3.3995418e-09
-0.0026403484 -0.0027053354 -0.013770772 -1.2649491e-05 -3.8004857e-19 0.0006051949 -0.00013345004 0.0005452928
-1.5926812e-08 -3.960042e-13 8.849808e-13 -4.876579e-13 8.680004e-10 2.8791588e-08 9.901573e-07 0.009558953
0.008235993 0.08675143 -0.041921355 0.0077363555 -0.00079376105 0.2906865 0.113727145 -0.21227466
0.0070993803 0.008479588 0.037200548 -0.25589424 0.19928572 0.061296303 0.013503996 -0.31674814
-0.15567482 0.23667465 -0.007338626 0.030773861 0.021235354 9.963347e-07 7.732725e-05 -0.001988231
0.00014197244 0.0077299266 0.009408247 0.0035936567 -0.0019542496 0.0026806947 -0.0009628232 -0.00017055431
0.019552317 0.00018771048 6.187342e-05 -0.00016829236 -0.01300711 0.004466476 -0.0069805216 3.9164424e-06
-0.0039565563 -0.0028512261 0.0036654305 0.0006582906 -0.014022545 -0.0024855912 0.00782378 -0.03461925
-0.0013599829 -0.0018585016 -0.0010171188 2.6860687e-05 9.728483e-05 -0.0039753094 0.0072255614 -0.00056088634
-0.09161776 -0.04789056 0.0012713679 -0.0020264834 -0.09051666 -0.0034807972 -0.1296962 -0.0012114738
-0.0031362183 0.077802464 0.16845411 -0.23835361 0.0008743324 -0.0020170137 0.09754537 -0.00010677486
-0.0008807146 0.011458366 -0.0037668892 0.04934485 -0.0003026174 -0.012989889 0.024612145 -0.07156135

fc_1.bias f4 [10]
00000000: 412e 12ba 73cc b03d 7ea9 d03d 28e4 80bd
00000010: 33b3 ab3c 9fb9 1c3e 0832 85bd a43a f1bc
00000020: 4134 b4bd 48d5 d3bd
-0.00055763504 0.086327456 0.10188578 -0.06293517 0.020959472 0.15305184 -0.06503683 -0.029446907
-0.08799029 -0.103434145

bn1.weight f4 [32]
00000000: 0000 803f 0000 803f 0000 803f 0000 803f
00000010: 0000 803f 0000 803f 0000 803f 0000 803f
00000020: 0000 803f 0000 803f 0000 803f 0000 803f
00000030: 0000 803f 0000 803f 0000 803f 0000 803f
00000040: 0000 803f 0000 803f 0000 803f 0000 803f
00000050: 0000 803f 0000 803f 0000 803f 0000 803f
00000060: 0000 803f 0000 803f 0000 803f 0000 803f
00000070: 0000 803f 0000 803f 0000 803f 0000 803f
1.0 1.0 1.0 1.0 1.0 1.0 1.0 1.0
1.0 1.0 1.0 1.0 1.0 1.0 1.0 1.0
1.0 1.0 1.0 1.0 1.0 1.0 1.0 1.0
1.0 1.0 1.0 1.0 1.0 1.0 1.0 1.0

bn1.bias f4 [32]
00000000: 0000 0000 0000 0000 0000 0000 0000 0000
00000010: 0000 0000 0000 0000 0000 0000 0000 0000
00000020: 0000 0000 0000 0000 0000 0000 0000 0000
00000030: 0000 0000 0000 0000 0000 0000 0000 0000
00000040: 0000 0000 0000 0000 0000 0000 0000 0000
00000050: 0000 0000 0000 0000 0000 0000 0000 0000
00000060: 0000 0000 0000 0000 0000 0000 0000 0000
00000070: 0000 0000 0000 0000 0000 0000 0000 0000
0.0 0.0 0.0 0.0 0.0 0.0 0.0 0.0
0.0 0.0 0.0 0.0 0.0 0.0 0.0 0.0
0.0 0.0 0.0 0.0 0.0 0.0 0.0 0.0
0.0 0.0 0.0 0.0 0.0 0.0 0.0 0.0

bn1.running_mean f4 [32]
00000000: 0000 0000 0000 0000 0000 0000 0000 0000
00000010: 0000 0000 0000 0000 0000 0000 0000 0000
00000020: 0000 0000 0000 0000 0000 0000 0000 0000
00000030: 0000 0000 0000 0000 0000 0000 0000 0000
00000040: 0000 0000 0000 0000 0000 0000 0000 0000
00000050: 0000 0000 0000 0000 0000 0000 0000 0000
00000060: 0000 0000 0000 0000 0000 0000 0000 0000
00000070: 0000 0000 0000 0000 0000 0000 0000 0000
0.0 0.0 0.0 0.0 0.0 0.0 0.0 0.0
0.0 0.0 0.0 0.0 0.0 0.0 0.0 0.0
0.0 0.0 0.0 0.0 0.0 0.0 0.0 0.0
0.0 0.0 0.0 0.0 0.0 0.0 0.0 0.0

bn1.running_var f4 [32]
00000000: 0000 803f 0000 803f 0000 803f 0000 803f
00000010: 0000 803f 0000 803f 0000 803f 0000 803f
00000020: 0000 803f 0000 803f 0000 803f 0000 803f
00000030: 0000 803f 0000 803f 0000 803f 0000 803f
00000040: 0000 803f 0000 803f 0000 803f 0000 803f
00000050: 0000 803f 0000 803f 0000 803f 0000 803f
00000060: 0000 803f 0000 803f 0000 803f 0000 803f
00000070: 0000 803f 0000 803f 0000 803f 0000 803f
1.0 1.0 1.0 1.0 1.0 1.0 1.0 1.0
1.0 1.0 1.0 1.0 1.0 1.0 1.0 1.0
1.0 1.0 1.0 1.0 1.0 1.0 1.0 1.0
1.0 1.0 1.0 1.0 1.0 1.0 1.0 1.0

bn2.weight f4 [20]
00000000: 0000 803f 0000 803f 0000 803f 0000 803f
00000010: 0000 803f 0000 803f 0000 803f 0000 803f
00000020: 0000 803f 0000 803f 0000 803f 0000 803f
00000030: 0000 803f 0000 803f 0000 803f 0000 803f
00000040: 0000 803f 0000 803f 0000 803f 0000 803f
1.0 1.0 1.0 1.0 1.0 1.0 1.0 1.0
1.0 1.0 1.0 1.0 1.0 1.0 1.0 1.0
1.0 1.0 1.0 1.0

bn2.bias f4 [20]
00000000: 0000 0000 0000 0000 0000 0000 0000 0000
00000010: 0000 0000 0000 0000 0000 0000 0000 0000
00000020: 0000 0000 0000 0000 0000 0000 0000 0000
00000030: 0000 0000 0000 0000 0000 0000 0000 0000
00000040: 0000 0000 0000 0000 0000 0000 0000 0000
0.0 0.0 0.0 0.0 0.0 0.0 0.0 0.0
0.0 0.0 0.0 0.0 0.0 0.0 0.0 0.0
0.0 0.0 0.0 0.0

bn2.running_mean f4 [20]
00000000: 0000 0000 0000 0000 0000 0000 0000 0000
00000010: 0000 0000 0000 0000 0000 0000 0000 0000
00000020: 0000 0000 0000 0000 0000 0000 0000 0000
00000030: 0000 0000 0000 0000 0000 0000 0000 0000
00000040: 0000 0000 0000 0000 0000 0000 0000 0000
0.0 0.0 0.0 0.0 0.0 0.0 0.0 0.0
0.0 0.0 0.0 0.0 0.0 0.0 0.0 0.0
0.0 0.0 0.0 0.0

bn2.running_var f4 [20]
00000000: 0000 803f 0000 803f 0000 803f 0000 803f
00000010: 0000 803f 0000 803f 0000 803f 0000 803f
00000020: 0000 803f 0000 803f 0000 803f 0000 803f
00000030: 0000 803f 0000 803f 0000 803f 0000 803f
00000040: 0000 803f 0000 803f 0000 803f 0000 803f
1.0 1.0 1.0 1.0 1.0 1.0 1.0 1.0
1.0 1.0 1.0 1.0 1.0 1.0 1.0 1.0
1.0 1.0 1.0 1.0

ln1.weight f4 [32, 14, 14]
00000000: 8fc6 2437 870f f6b9 88b2 3bba 8632 19ba
00000010: 180e 3338 28fa 0c3a 9b99 49ba 5ed6 16bb
00000020: 302a 22b9 ed82 84b8 ce91 7639 d9cd 23ba
00000030: 84a2 ac38 1865 9ab8 e42f 76b9 4483 ffb9
00000040: a379 0e3b 45ee 4337 481f e9b6 554a 19b7
00000050: 0fd8 162c 4c4f e9b8 e8f5 5e27 f32c 22ba
00000060: ab74 92b9 4407 31bb 5570 5739 b4e3 ddb8
00000070: d8e6 1aba 4019 fa3a 781e b23a 91e2 baaa
00000080: c7cd a0b9 bd8f 1aba 3d8c 86a8 7cf9 4f3b
00000090: d9cb cdb7 c33e e0bb 0070 833b c32b 782d
000000a0: 0123 f739 7282 14b9 1871 fd38 474c 71b9
000000b0: 7ff3 31a5 8c33 3cba 4bb1 8eb8 8953 1e38
000000c0: 276c 20b9 b378 212c d1e1 b5b3 af4e 81b8
000000d0: ff1e a92a 5a83 d1ab 6674 4739 3090 4fb9
000000e0: ab15 113a 4055 47aa b486 3ea8 4e56 5d38
000000f0: 8466 5a37 1147 58bb 0a74 5138 4513 5ba4
00000100: 8f11 af19 4bcf 633b bac3 3939 8e82 9d30
00000110: f5a0 78bb e2d2 44bb 2d70 093b fced 4229
00000120: 694b 89ba 704a 1a32 21a5 fe35 5a51 00b9
00000130: 8559 2c39 12e2 eebb 42d1 f834 76e3 5ebb
00000140: b38e 46bb 9442 e8ba 3527 bdb5 6052 60bb
00000150: ebaa 2238 4415 08b1 2521 753c c4e4 b8b8
00000160: c97c c7b8 b398 71b9 782e cba0 6ef1 533b
00000170: 19e6 dc37 6393 2abc 848a d43b c7f3 b7b9
00000180: 908c ceb9 cb78 dd39 f369 cc3a 63ef b1a9
00000190: 0c53 ecb9 2057 903b c00d 003b 9842 22a6
000001a0: a781 9c3d c67f 3db5 fc80 c2bd 06fa 85b9
000001b0: 62d3 05bd d173 1f3c 4161 c1b4 78d8 e1b6
000001c0: 0fad 4b38 153d 8839 ecce 3b3a 8413 83b6
000001d0: fc1f 92a7 cec7 3d3c 7415 f93a c9a8 acb7
000001e0: 8240 b4bb 9155 74bd 2db0 513b 9d10 133a
000001f0: fcce 9cba 1578 c939 d983 9739 d1ef 542b
00000200: bc7b 6338 4f42 523a 2b56 47b8 bc4b 4bb9
00000210: 1964 8eba f61c 63ba e108 14bc 7b0d a03c
00000220: 57f2 a7ba 68dc 8cba 80fc 23b1 0792 f5b7
00000230: 2695 47b8 b850 0eb1 8f7f 00b8 3860 26b3
00000240: c1ce dd3b 2323 2e27 20bb 419c a4b8 9dbb
00000250: b096 fcb8 b3c2 d8ac edc3 10b8 d0d2 8cb7
00000260: b1df ddba 5747 b7ba 4224 44b9 8ff5 a0ba
00000270: b692 2b2c d571 6e36 a93f 56bb a2a1 862e
00000280: 0d7b 2bb3 e496 1627 74df 502c 88c2 03ac
00000290: c6c4 0136 0338 1139 dd34 efb9 2d64 073a
000002a0: d261 b7b9 e570 88b8 447a 4cab 319d eb30
000002b0: 2e4c aa39 9a47 9dbb 482c a938 6e83 95b5
000002c0: 6ad4 1ba7 3678 b728 12b1 c1ac 083a 05b8
000002d0: 41cc 1c3a 920a 2fb7 c134 a8b9 50c0 8b39
000002e0: 2dd4 4031 19d9 ebba 14de 2ab7 42e2 4e2f
000002f0: 7970 85ba 53b2 6c3a 84dc 45b8 2123 ceb9
00000300: 8ffb 46b9 5f81 69b8 b856 54b8 3cfa a838
00000310: 87c5 84b9 7aa4 fdb9 7416 4739 8894 183a
00000320: f946 81b8 62e9 1dba abf2 78b9 b873 0d38
00000330: ad14 7ab7 2571 a7bb e542 90ba a14b 7a38
00000340: a52b 3a39 fc13 1f39 b778 26b8 548c 68b8
00000350: c14f 0dba c734 26ba 6eb8 e0b9 9a8e de39
00000360: 35be 1239 711b 7239 79dc 77ba a1e8 bcb9
00000370: 404f ceb7 340d 4f37 bc13 bd39 b3d4 07b8
00000380: 2dff 0637 afce 4f38 53e7 ee38 4d6b 85ba
00000390: 7a34 603b 2950 82b9 c4be 53bb 3052 52ba
000003a0: 890f 6db9 b311 62bb 1b6b 66ba 6281 c13b
000003b0: 59de f639 166a 9e3a 1d04 90b9 0158 07ba
000003c0: 676a dab9 dcdd 07b8 337a de2f 3dac 0280
000003d0: 0a0a e22c e666 c0b8 d379 56b7 d8fd 99b6
000003e0: 071d 9338 818e 063b 792f 92ba b979 c138
000003f0: ca87 a2b9 0879 2b39 4c51 66b8 1bda 323a
9.821392e-06 -0.00046932345 -0.0007160087 -0.00058440154 4.269005e-05 0.00053778524 -0.00076904305 -0.0023015956
-0.0001546524 -6.318637e-05 0.00023514705 -0.000624863 8.23187e-05 -7.3621224e-05 -0.00023478229 -0.0004873519
0.0021739982 1.1678382e-05 -6.9475827e-06 -9.136817e-06 2.1436219e-12 -0.00011125076 3.0941995e-15 -0.00061865075
-0.00027934214 -0.0027012387 0.00020545845 -0.00010580514 -0.0005909032 0.0019081011 0.0013589403 -3.319745e-13
-0.00030670894 -0.00058960525 -1.4937807e-14 0.0031734398 -2.4532828e-05 -0.0068434193 0.004011154 1.4106885e-11
0.0004713759 -0.00014162975 0.000120850455 -0.00023011967 -1.5434802e-16 -0.0007179312 -6.804111e-05 3.7747934e-05
-0.00015299079 2.2946478e-12 -8.469545e-08 -6.165855e-05 3.0041938e-13 -1.4886801e-12 0.0001902148 -0.00019794772
0.000553454 -1.7704328e-13 -1.0576328e-14 5.2770883e-05 1.3017681e-05 -0.0033001343 4.9937553e-05 -4.7504377e-17
1.8101668e-23 0.0034761007 0.00017715889 1.1460359e-09 -0.0037937735 -0.0030032923 0.0020971403 4.3283072e-14
-0.0010474744 8.980905e-09 1.8972534e-06 -0.00012237337 0.00016436547 -0.0072901333 4.6345855e-07 -0.003401009
-0.0030297458 -0.0017720037 -1.4093008e-06 -0.0034228787 3.878299e-05 -1.9802693e-09 0.014961516 -8.8164146e-05
-9.5123025e-05 -0.00023040436 -3.4420288e-19 0.0032339948 2.6333191e-05 -0.010411116 0.006486239 -0.00035086108
-0.0003939611 0.00042242403 0.001559554 -7.901906e-14 -0.00045075302 0.0044049174 0.0019539446 -5.629529e-16
0.07641917 -7.059392e-07 -0.09497258 -0.0002555402 -0.032672293 0.009732203 -3.6019813e-07 -6.730723e-06
4.8560145e-05 0.0002598545 0.00071643176 -3.906376e-06 -4.055782e-15 0.011583282 0.0019003586 -2.0582595e-05
-0.005500854 -0.059651915 0.0031995878 0.00056100806 -0.0011963542 0.00038427176 0.00028899199 7.565034e-13
5.4236254e-05 0.0008020745 -4.7525547e-05 -0.00019387802 -0.0010863572 -0.00086636783 -0.00903532 0.019537678
-0.0012813312 -0.0010746839 -2.3863151e-09 -2.9274275e-05 -4.7584203e-05 -2.0709603e-09 -3.0636376e-05 -3.8737397e-08
0.0067690318 2.4166398e-15 -6.4100197e-22 -0.0048132706 -0.00012044364 -6.160705e-12 -3.4514745e-05 -1.6787468e-05
-0.0016927627 -0.0013983053 -0.00018705524 -0.0012280213 2.4382002e-12 3.5531023e-06 -0.0032691753 6.122326e-11
-3.9925954e-08 2.089848e-15 2.968262e-12 -1.8724206e-12 1.9337035e-06 0.00013849144 -0.00045625019 0.00051647687
-0.00034977362 -6.5060136e-05 -7.2645037e-13 1.7143177e-09 0.00032481685 -0.0047997953 8.066796e-05 -1.1139616e-06
-2.162572e-15 2.0369215e-14 -5.5050487e-12 -3.1763717e-05 0.0005981364 -1.0433274e-05 -0.00032082762 0.0002665543
2.8060285e-09 -0.0017993777 -1.0184496e-05 1.8815974e-10 -0.0010180614 0.0009029258 -4.717383e-05 -0.00039317555
-0.00018976464 -5.5672015e-05 -5.0625502e-05 8.057474e-05 -0.0002532417 -0.00048378465 0.00018986483 0.0005820473
-6.164419e-05 -0.00060238515 -0.00023741524 3.372479e-05 -1.4905975e-05 -0.0051099234 -0.0011006264 5.967508e-05
0.00017754601 0.00015170866 -3.968991e-05 -5.54438e-05 -0.00053906074 -0.0006340262 -0.0004286202 0.00042449386
0.00013994503 0.00023089141 -0.0009455155 -0.00036031476 -2.4594017e-05 1.2341236e-05 0.00036063592 -3.23846e-05
8.046435e-06 4.9545135e-05 0.00011391812 -0.0010179073 0.0034210966 -0.00024855256 -0.003230975 -0.0008023111
-0.00022607869 -0.0034495413 -0.00087897637 0.005905316 0.00047086438 0.001208606 -0.00027468885 -0.0005162955
-0.00041659476 -3.239313e-05 4.0468393e-10 -2.45458e-40 6.424421e-12 -9.17444e-05 -1.2783758e-05 -4.5893066e-06
7.014913e-05 0.0020531716 -0.0011153064 9.22563e-05 -0.0003100022 0.00016352918 -5.4911987e-05 0.00068226614

ln1.bias f4 [32, 14, 14]
00000000: c232 0cba 90d4 a03a 5d20 73bb f737 5cbb
00000010: c8ed 483b abf1 443c 2cb6 9eb9 cc9a 01ba
00000020: 2770 01ba 4f79 82ba dc78 433b a53b beba
00000030: a32f 223a d8e3 423a d431 b3ba cf5e 1539
00000040: 9a05 2b3c 4033 31b9 3ea1 2ab9 00bb bab8
00000050: 8517 8bb4 538d 73b9 a879 16b8 5fc1 39bb
00000060: 58a6 77bc bdec 86bb a4a6 0dba d57d 8eba
00000070: 1983 41b9 9c83 82bc a9cf 93bb c2e7 e4b1
00000080: 0e51 5dba fdb2 10bb 5424 b9ad 0388 06bc
00000090: b61f 22b8 4490 debb 486a 0f3c c995 5ab5
000000a0: 649d f7bb db25 d0b9 ac50 bdb8 ded2 1bba
000000b0: 4312 93ae c372 88ba 406b 46ba 42dd 10b9
000000c0: 4d80 b2ba bc85 4eb7 ea62 00b8 ea97 4ab9
000000d0: 5616 7eb6 437e 8ab7 dcf1 633b 182f a2b9
000000e0: 0794 033b 177d 8fb8 0bd0 87b2 fc80 1cba
000000f0: 6ad5 1eb9 cd49 3cbc 806d 5fba 2a99 e3b0
00000100: 1e89 f59b e2bf 103c 5e47 1bba 0572 23b8
00000110: 931a 0cbc 282a 02bb 293b 4c3b cc73 8eb8
00000120: 5871 9fbd 6d01 bab5 5783 46bb af06 4eb7
00000130: 80dd 19b9 f4a1 1cbc 41c0 71b6 6fff 63ba
00000140: 9bf8 95bb d49b d5ba 8188 b9b5 f781 7ebb
00000150: 24fe 61b8 abfc 10b4 e1b2 173d 4bae 2fba
00000160: ba3b 8cb7 e203 a2b8 dd5a 85af ab6e 4fbc
00000170: e017 82b9 686a a3ba 147d 9cbb d298 c5b9
00000180: c7d3 05bb 4d7c 4eba 2973 d13b 22ea fdb9
00000190: c172 30bb f2a5 dbba 697c 0dbb 40fa 2db1
000001a0: 7e60 c4bc efae 44b5 8412 77bd 5a1a beb8
000001b0: ed0b 9fbc bffc 91bc 9ef8 c2b7 b2d6 a434
000001c0: 7dbd bdb8 2754 8dba d649 15ba e86b f8b4
000001d0: 04e5 3bb3 8688 02bc 709a 8aba f34e afb5
000001e0: 6243 33ba f7c0 88bc 5025 0cbb fc31 71bb
000001f0: 02b9 81bb eea6 7aba 79e1 90ba b4f7 8bb9
00000200: cd3e 12ba f5a1 cfb9 30a6 35b7 1fc7 bbb7
00000210: 7612 22bc 0740 95b9 6c2c 2cbc 1941 8fbc
00000220: 07ce 1abb 645a 8bbb 1b23 4bb2 1e60 9fb9
00000230: 62eb a2b8 a5d5 2ab6 5af1 90b8 7f11 db2e
00000240: 48f6 bebb 458d ffb6 a205 55a5 b115 9abb
00000250: 3d2b dab8 c511 84b8 cfbe 2bb8 e332 6ab9
00000260: e345 dcbb 9c7e 7f3b e004 55ba 244b 10bb
00000270: 8598 8caf c24b 51ba aee3 debb 3f30 d5b4
00000280: 09cb 35b6 f432 b5af bc83 cdb5 c8da 52b5
00000290: d8eb ebb9 020a ad39 7b2a 73b9 ef32 8b3b
000002a0: a973 bd37 ce48 3ab8 0e8a 5db4 53e1 8cbb
000002b0: 95ca 02bb c152 c8bb 6087 1fb9 ed71 63ba
000002c0: e9c3 29b4 a5fe 03b5 c688 ecb9 4c2c 63b8
000002d0: 82c8 ef3a f084 0fba afa0 7cba c9fc 30b8
000002e0: d51b f1b6 07b8 b1bb d097 89b9 fe58 bdb7
000002f0: a02f a4bb a465 92bb e5ca 8fb8 985a 67ba
00000300: 5828 39b8 7d1d 89b8 1940 5e3a 8057 acb6
00000310: 30a3 a1b9 d23f d83b d452 eab9 c883 233b
00000320: 5ad0 a5b9 1277 56bb bd2a a0b8 97c2 42ba
00000330: 1387 e4b8 cc24 f4bb 1421 1abb 10ac 9a39
00000340: e881 403a c860 dcb9 34c3 4ab9 7738 f5b8
00000350: 06a6 5dbb 9c2c e7ba a94c 79b8 b1d0 b3b9
00000360: f8bc abba 9303 5ebb 2d95 f5ba 4ba2 b6b9
00000370: bfec deb7 45e5 06b9 8264 99ba ec65 893a
00000380: 33bd 6839 eecd 2db9 252c d6b9 7623 9839
00000390: b91f 173c 159c 16bb 549a 96ba 886f 013b
000003a0: 1bbc ccb9 756b fabb 0db0 adbb e365 883c
000003b0: a858 e7bb e2bc 12bb b0b1 1fbb 765f 3abb
000003c0: 8bd5 c5ba 7a28 1dba c735 00b5 2142 b6a1
000003d0: efb8 69b4 6ba5 c1b9 d68a b5b7 f1dc 21b8
000003e0: 4428 1739 9c1c 36bc ee65 02bc 6394 d4b9
000003f0: 0388 c7bb b90c b6b9 f7e8 5db9 cd8f b4bb
-0.00053481397 0.001227038 -0.0037098147 -0.0033602694 0.0030659307 0.012020509 -0.00030271837 -0.0004944026
-0.00049376715 -0.0009954366 0.0029826676 -0.0014513625 0.0006186908 0.0007434464 -0.0013671466 0.00014245066
0.010438347 -0.00016899128 -0.00016272531 -8.9040026e-05 -2.590788e-07 -0.00023226933 -3.5876088e-05 -0.0028344018
-0.015115343 -0.004117577 -0.00054035545 -0.0010871241 -0.00018454752 -0.015931897 -0.004510839 -6.662021e-09
-0.0008442559 -0.0022079342 -2.1048198e-11 -0.008211139 -3.8653343e-05 -0.0067921 0.008753367 -8.1429295e-07
-0.007556604 -0.00039701056 -9.0272486e-05 -0.00059442024 -6.68803e-11 -0.0010410178 -0.0007569082 -0.00013815335
-0.0013618559 -1.2309694e-05 -3.06097e-05 -0.00019320814 -3.786195e-06 -1.6509677e-05 0.003478161 -0.00030934135
0.0020077245 -6.842071e-05 -1.5810675e-08 -0.0005970148 -0.00015147557 -0.011492205 -0.00085230917 -1.6559956e-09
-4.062046e-22 0.008834811 -0.00059234153 -3.8968417e-05 -0.008551258 -0.0019861553 0.0031163192 -6.7926565e-05
-0.077852905 -1.3858495e-06 -0.0030290687 -1.2280113e-05 -0.00014673732 -0.009560097 -3.6023705e-06 -0.00086974254
-0.004576755 -0.0016297051 -1.3823302e-06 -0.003883479 -5.3880867e-05 -1.3502965e-07 0.037035827 -0.0006701692
-1.6717113e-05 -7.725485e-05 -2.425712e-10 -0.012660663 -0.0002481332 -0.0012467625 -0.0047756527 -0.00037688628
-0.0020420419 -0.00078767986 0.006391902 -0.00048430363 -0.0026923867 -0.001675783 -0.0021589047 -2.5317064e-09
-0.023971792 -7.327025e-07 -0.060320392 -9.0648144e-05 -0.019414866 -0.017820714 -2.3242374e-05 3.0703592e-07
-9.047517e-05 -0.0010782526 -0.00056949013 -4.6272112e-07 -4.374762e-08 -0.00796712 -0.001057459 -1.3061493e-06
-0.0006838349 -0.016693575 -0.0021384545 -0.0036803475 -0.003958822 -0.00095616176 -0.0011053524 -0.000266967
-0.0005578816 -0.00039602784 -1.0827134e-05 -2.238486e-05 -0.009892097 -0.000284672 -0.010508638 -0.017487096
-0.0023621337 -0.0042527188 -1.1824137e-08 -0.00030398456 -7.7686054e-05 -2.5456332e-06 -6.91141e-05 9.962075e-11
-0.005827699 -7.616038e-06 -1.8476713e-16 -0.004702293 -0.00010403104 -6.29756e-05 -4.094728e-05 -0.00022334936
-0.0067221983 0.0038985377 -0.00081260316 -0.0022017444 -2.5574223e-10 -0.0007984006 -0.006802044 -3.9709445e-07
-2.7089284e-06 -3.2959913e-10 -1.531203e-06 -7.8549465e-07 -0.0004499841 0.00033004588 -0.00023190111 0.004248015
2.2584414e-05 -4.441366e-05 -2.0632453e-07 -0.0042993217 -0.0019957174 -0.0061133807 -0.00015213853 -0.0008676339
-1.5810623e-07 -4.917186e-07 -0.00045115332 -5.4162272e-05 0.0018294009 -0.00054748263 -0.0009636981 -4.2197094e-05
-7.1855998e-06 -0.005423549 -0.00026243785 -2.2571996e-05 -0.00501056 -0.004467683 -6.8565634e-05 -0.000882545
-4.414501e-05 -6.538162e-05 0.0008478179 -5.136186e-06 -0.00030829897 0.006599405 -0.0004469367 0.0024950374
-0.00031626486 -0.003272478 -7.637355e-05 -0.0007429509 -0.00010897047 -0.0074506756 -0.0023518251 0.00029501365
0.0007343576 -0.00042033778 -0.0001933694 -0.00011693028 -0.0033820882 -0.0017637196 -5.943762e-05 -0.00034297028
-0.0013102582 -0.0033876642 -0.0018736474 -0.00034834663 -2.6574706e-05 -0.00012864645 -0.0011702927 0.0010482646
0.00022195726 -0.0001657528 -0.0004085015 0.0002901812 0.009223872 -0.0022981216 -0.0011490085 0.0019750316
-0.00039050062 -0.0076422044 -0.005300528 0.016650146 -0.007060129 -0.0022390415 -0.0024367385 -0.0028438247
-0.0015093548 -0.0005995106 -4.776197e-07 -1.2350304e-18 -2.1767094e-07 -0.00036935075 -2.1641532e-05 -3.859116e-05
0.00014415482 -0.011115219 -0.007958872 -0.00040546348 -0.006089212 -0.00034723224 -0.00021162989 -0.0055103065

ln2.weight f4 [20, 10, 10]
00000000: 13bf d6af b2e6 17bb dab8 cf01 b125 0000
00000010: b961 c1bc 9d16 02bb 9951 d320 d3bc 03ba
00000020: 8b4a 3f3d 559b 803b 8ca9 0bb9 af00 de38
00000030: e141 e7b8 5f12 2b3e a47d 02bb 6b37 4cba
00000040: 0f7a cd3b 4137 1c3e 78e9 f439 6f3b 133c
00000050: 8359 16b4 6495 b808 c637 ea2c 9999 b837
00000060: e3f6 899c 8207 11bb cc4b beba 1780 a03e
00000070: 42fe 2fb6 1fad ccb9 1c65 893e d6b1 a33e
00000080: ccc8 553e 071d cf3d 383f cab4 1c2c 14bb
00000090: ef11 1b3f d0ee 3a33 ef80 2a3e b0e1 daad
000000a0: 8c3f a83c ac7d 773c 3d84 83a5 2f28 fcb2
000000b0: 03ba 5eb6 2d24 71b9 6bf0 e037 600c 61b6
000000c0: 01cf 4f35 89de 793a b157 f53e 8384 b4bb
000000d0: 64d2 443a 5442 74bb a66d 62ba 1af1 55bb
000000e0: 8cd8 80b7 0cb0 5eb9 1ca3 01b7 9872 8837
000000f0: 3c54 713e 43a8 913e 96e6 3b3e 1131 043f
00000100: 1864 2b3d 1e02 64bb 042d 4e39 eac5 d3b9
00000110: cca6 0736 68f6 94b6 7303 48b9 b8ad b224
00000120: d8d1 de30 fa5e 5a39 a135 a139 7963 dcb6
00000130: 6af3 9fbb d722 04bb 04ce b8b9 207d 993a
00000140: 7c2b c23b 3bb3 b33c 14d0 1237 2455 e79b
00000150: f0ac acba 6c1a 673d a781 8f3d 6359 4d16
00000160: 30c3 5cb9 7ee9 4535 cc78 e00a 1e96 1d16
00000170: c42c 7fb6 c974 c0b5 4e1b f418 c978 232a
00000180: ed7a ee23 2d85 e22f 41c2 9cbc 96bd 1238
00000190: b5f4 f7b5 97d9 ad36 645a 10ba d7c5 df38
000001a0: 34f6 2837 1f4e bab8 fb19 00b9 0776 3dba
000001b0: 399a f0ba 9dca a3bb a394 3632 9a84 068d
000001c0: 631e 0100 d306 911f ffc0 83b6 4649 431c
000001d0: 4828 ebb3 4af4 1000 5f04 1b1a 503d 56bb
000001e0: e8d4 3cba 8423 1eb9 4928 0638 e662 51b8
000001f0: 9bdd 45b9 e1e8 a7b7 9190 9e39 0523 0080
00000200: 19e1 c0b8 1d11 7ab8 783f f91f 1ab8 8727
00000210: 79e8 23b8 ec3e a2b3 b09a 4434 9bad cc31
00000220: 6a3c 88a8 2a81 6734 57e5 692f bb87 1f8f
00000230: ab6e cb39 c0ae 1937 edac 25b9 f481 e0b8
00000240: c39d 2680 eb08 e1b7 c70a 3eb8 51a5 11b9
00000250: 2431 9833 0cfd 3a38 b0d2 ab2d 0f36 3229
00000260: ec1c 13b7 ea4d 34b5 8f13 7837 da24 4133
00000270: d8ee 72b3 77d7 9430 4030 a7b9 10fc 8c33
00000280: f395 2438 39d6 1b2d 49ff 15ba 3a16 4b34
00000290: 0c51 3433 9e80 90b0 c69a 9ab8 d986 4635
000002a0: 1f55 9c35 1ac4 5a36 37ea a9b4 fb45 80b9
000002b0: ee33 743b fdaf ae1f c41c d53b 9b8f fcb9
000002c0: 6747 e538 6736 dab6 4b9f bbb4 e2ff a686
000002d0: 11ff 5cb7 dc3d c02e 35a4 c6b6 3a9a 0032
000002e0: f47e 0db8 0ebe 3031 034c 7d2d a489 2930
000002f0: a56a 8d2e 2db0 13b9 8d10 5936 5725 6cb9
00000300: d5eb 96b9 4534 0484 99c2 2439 6d76 4fbb
00000310: 787c 1bb9 12b6 2f38 09ee 23b6 6a78 74b6
00000320: 352a cb33 9d14 3314 26ea aa30 cf9c cbb1
00000330: 7efa 76ac e909 3b18 645b bd92 6548 b293
00000340: d05c 90a5 8805 8e35 6fb5 ab0b 7ee2 b232
00000350: 96d5 a1b1 34eb 5d2f 1480 f6af 338d 01ae
00000360: 619f 5b30 7550 0a21 f95d c235 c02a 6127
00000370: ceee 3ab4 fae2 16b5 8085 613b 6d58 edb9
00000380: 7a4b 8134 a611 a2b4 c5e8 7316 a38e ac2f
00000390: ee05 7fb4 fc1b deb3 fc96 8835 d8e3 7136
000003a0: 7019 b5b9 87f2 6bb8 c502 0d34 fceb 3fb3
000003b0: 100d 632c 5871 2596 1bf2 af1c 8e20 a733
000003c0: 9dd6 de37 8605 0080 a9ae 55b7 ed88 6936
000003d0: 98e9 0d36 9446 2839 608a 3737 fe16 12a8
000003e0: a554 dd39 5fe0 7fba 9e3c 8b36 d454 0380
000003f0: 931f 0080 88b8 cc39 d2ce 5cab c74d 36a7
-3.906214e-10 -0.0023178277 7.630504e-38 1.3521e-41 -0.023606168 -0.0019849904 3.5798787e-19 -0.00050253904
0.04670195 0.003924767 -0.00013319234 0.00010585912 -0.00011027209 0.16706227 -0.0019911313 -0.00077902403
0.006270654 0.15255453 0.00046713254 0.008986338 -1.4002403e-07 1.1109219e-33 6.656872e-12 2.2006034e-05
-9.129718e-22 -0.002212972 -0.0014518439 0.31347725 -2.622503e-06 -0.00039038897 0.26834953 0.31971616
0.20877379 0.101129584 -3.767143e-07 -0.00226093 0.6057424 4.35237e-08 0.16650747 -2.4883956e-11
0.020538114 0.015105646 -2.2814486e-16 -2.9354934e-08 -3.318885e-06 -0.00022997028 2.6814834e-05 -3.3534816e-06
7.741474e-07 0.00095317565 0.47918466 -0.0055089607 0.0007508157 -0.003727098 -0.0008637555 -0.0032644928
-1.5359627e-05 -0.00021237152 -7.726976e-06 1.6265825e-05 0.23567289 0.28448686 0.1834968 0.5163737
0.041843504 -0.00347913 0.0001966246 -0.00040392514 2.0213656e-06 -4.439429e-06 -0.00019074771 7.7489486e-17
1.6212267e-09 0.00020825482 0.0003074827 -6.568091e-06 -0.004881312 -0.0020162368 -0.00035248708 0.0011710264
0.005925594 0.02193605 8.750725e-06 -3.8270765e-22 -0.0013174098 0.056421682 0.07007151 1.6587974e-25
-0.00021053548 7.3727995e-07 2.1615854e-32 1.2729728e-25 -3.8024018e-06 -1.4339104e-06 6.3100092e-24 1.4519214e-13
2.5856073e-17 4.1203788e-10 -0.019135596 3.498568e-05 -1.8474153e-06 5.1811326e-06 -0.00055066333 0.00010670319
1.0070904e-05 -8.883722e-05 -0.0001221671 -0.0007227365 -0.0018356509 -0.0049985186 1.062759e-08 -4.145155e-31
1.02736e-40 6.142118e-20 -3.926572e-06 6.461479e-22 -1.09503674e-07 1.557002e-39 3.205678e-23 -0.0032690354
-0.00072033564 -0.00015081285 3.1985608e-05 -4.992159e-05 -0.00018869939 -2.0016394e-05 0.0003024382 -1.2563e-41
-9.197201e-05 -5.9620583e-05 1.055606e-19 3.766963e-15 -3.9078735e-05 -7.555158e-08 1.8310197e-07 5.956918e-09
-1.5125234e-14 2.1560541e-07 2.1272704e-10 -7.865446e-30 0.0003880163 9.160198e-06 -0.00015800046 -0.00010705358
-3.546343e-39 -2.6826243e-05 -4.5309567e-05 -0.00013889863 7.08699e-08 4.4581524e-05 1.9534013e-11 3.9570828e-14
-8.768617e-06 -6.7168605e-07 1.4786506e-05 4.496983e-08 -5.6562243e-08 1.0829656e-09 -0.0003188867 6.565108e-08
3.9240298e-05 8.858297e-12 -0.00057219394 1.8913934e-07 4.1983228e-08 -1.0513934e-09 -7.372121e-05 7.3956977e-07
1.1647679e-06 3.2598678e-06 -3.1649117e-07 -0.00024466202 0.0037262398 7.3983015e-20 0.0065036733 -0.0004817218
0.00010932871 -6.5032395e-06 -3.4947365e-07 -6.2818246e-35 -1.3172409e-05 8.7421376e-11 -5.919976e-06 7.485648e-09
-3.3735254e-05 2.5719404e-09 1.4398263e-11 6.167744e-10 6.4308815e-11 -0.00014084643 3.2345154e-06 -0.00022520624
-0.00028785938 -1.5540526e-36 0.00015712752 -0.003165628 -0.0001482832 4.1892818e-05 -2.4427447e-06 -3.6428924e-06
9.4606015e-08 9.041256e-27 1.2435677e-09 -5.9259047e-09 -3.5097754e-12 2.4174187e-24 -1.1950106e-27 -4.5004904e-27
-2.504291e-16 1.0581434e-06 6.6139795e-32 2.0824924e-08 -4.7099986e-09 2.0183394e-10 -4.4838144e-10 -2.9456614e-11
7.9898227e-10 4.6862703e-19 1.4481476e-06 3.1248197e-15 -1.7409477e-07 -5.620965e-07 0.0034411848 -0.00045270045
2.408304e-07 -3.0187692e-07 1.9702833e-25 3.1387967e-10 -2.3750883e-07 -1.0342771e-07 1.0176732e-06 3.604442e-06
-0.00034541963 -5.6254237e-05 1.3132656e-07 -4.468528e-08 3.2265891e-12 -1.3364359e-25 1.1643111e-21 7.782465e-08
2.65644e-05 -1.981e-42 -1.2736456e-05 3.4799407e-06 2.1146607e-06 0.00016048021 1.0939868e-05 -8.109614e-15
0.0004221547 -0.0009760912 4.1495796e-06 -3.05937e-40 -1.1327e-41 0.000390474 -7.844672e-13 -2.5299737e-15
